PyTorch-Models/LeNet_cifar.pth (torch, 640839 bytes, 10 tensors)

conv1.weight f4 [32, 3, 3, 3]
000000 2c 55 0c 3f c8 5f 0c 3f ba 17 83 3e f2 40 98 be
       0.5481746 0.5483365 0.2560404 -0.2973705
000010 fe d1 d0 be a2 ae be be 17 69 ab bd dc 02 0b be
       -0.4078521 -0.3724261 -0.08369654 -0.1357531
000020 4d 9a 5d be 0f 8e 37 3e 5e b6 06 3f c5 6c 94 3e
       -0.21640892 0.17925285 0.5262202 0.28989235
000030 44 79 df be 33 7a 2b be 63 e9 84 be e9 b6 66 bd
       -0.43647206 -0.16745834 -0.2595931 -0.05632678
000040 3c 03 80 bd 2d c4 42 3b 9a 0e 4f 3e 08 5c 83 3e
       -0.06250617 0.002971898 0.20220414 0.25656152
000050 2d be 4e bd 58 4f 84 be a6 cf be be 6c f1 84 be
       -0.050474335 -0.25841784 -0.37267798 -0.2596544
000060 4a 42 69 3e 80 94 8b 3e 07 43 e6 3d 16 33 0b be
       0.22779194 0.27261734 0.11243253 -0.13593706
000070 09 d0 a4 3d f1 08 8c bc 03 61 59 be 4b 40 5c bd
       0.08047492 -0.017094107 -0.21228413 -0.053772252
000080 4c fc 74 3d 91 07 38 be f9 c6 01 3d 38 87 f3 3d
       0.05981092 -0.17971636 0.031683896 0.11891025
000090 62 0f 61 bc 0c 15 d4 3d a2 74 36 3d 08 be 70 be
       -0.013736578 0.10355577 0.044544823 -0.23509991
0000a0 2a 72 07 3e fa 1b 85 bd 3e 71 07 be e6 ea f6 bd
       0.13227144 -0.06499477 -0.13226792 -0.12056522
0000b0 3c 85 20 3e a3 c3 fa bd 86 9d 52 3e a4 8a c7 3e
       0.15675825 -0.12244346 0.20567903 0.38972962
0000c0 32 1d 55 be 3a 4a 3b 3e b6 3f b5 3e e0 51 aa be
       -0.20811918 0.18290034 0.3540017 -0.3326559
0000d0 8d 6a f2 b8 78 bf 44 3e f1 a0 ce 3e d9 33 3b bd
       -0.00011559306 0.19213665 0.40357164 -0.045703743
0000e0 ad 9e 07 3e a1 8c 36 3c 50 bc d0 3c d8 2c 5e 3e
       0.13244124 0.011141927 0.02548042 0.21696794
0000f0 28 da 11 bd e5 e3 41 3e e1 1d c2 3d 6d 4b 6f be
       -0.03560844 0.18934591 0.09478355 -0.23368616
000100 8c 06 33 be 58 c5 8e be 88 b3 92 be 01 bf 11 be
       -0.17482966 -0.27884936 -0.28652596 -0.14233018
000110 f0 39 21 bd ce 6b 15 be ad 73 41 be d7 fc e2 bc
       -0.039361894 -0.14591905 -0.18891783 -0.027708454
000120 3b fb 0f bd c8 7e e2 bd 47 1f 8d 3e 55 9b 0c 3d
       -0.0351517 -0.11059338 0.27562925 0.034327824
000130 c4 1e 53 3d d6 85 7a 3d fa ec f9 bc cf 26 6c 3e
       0.051543012 0.061162792 -0.030508507 0.2306168
000140 31 8f e7 bb 72 b9 0b 3e 1d ec 25 be b5 9b 93 be
       -0.0070666303 0.1364496 -0.16203351 -0.28829733
000150 08 c6 9b 3e 8a 14 80 3e c9 78 22 bf 33 ac 65 3e
       0.30424523 0.2501567 -0.63465554 0.2242897
000160 eb 9b d6 3e 68 f7 a5 be 59 08 14 3e 8b 03 18 bd
       0.4191583 -0.32415318 0.1445631 -0.037112754
000170 2d 39 59 be 8e 79 3e 3e 60 d5 e1 3e 31 0f 08 bf
       -0.21213217 0.18601057 0.44108105 -0.5314818
000180 c3 54 12 3d 37 64 06 3f a5 b3 80 be b9 c5 9f 3d
       0.035725366 0.52496666 -0.25137058 0.078013845
000190 46 8c de bd 7a ac a9 be 4e 4b d9 3e d8 05 71 3e
       -0.10866599 -0.33139402 0.42440265 0.23537385
0001a0 c6 27 1e bf 68 83 44 3d 5d 78 37 3e c8 60 60 be
       -0.6177944 0.04797688 0.17917009 -0.21911919
0001b0 55 6f a0 be 5a 84 17 be 92 9f f6 bd 30 b8 3c bd
       -0.3133494 -0.14796582 -0.12042154 -0.046074092
0001c0 13 7e cd bc c0 82 2a 3d 1f 63 12 3e d9 21 75 3e
       -0.025084531 0.0416286 0.14295624 0.23938693
0001d0 f7 4c 11 bc 94 15 6b 3d 53 69 94 be 75 f1 9f be
       -0.0088684475 0.057393625 -0.28986606 -0.31238905
0001e0 a3 3f 36 3e 5e c1 29 be a6 89 94 3d 97 57 16 3e
       0.17797713 -0.1657767 0.07252817 0.1468185
0001f0 2d 58 23 b9 44 39 82 3e 73 f1 c2 bc 34 ea 45 3d
       -0.0001557774 0.25434315 -0.023796773 0.048319057
000200 7c fc 88 be c1 ad 1d 3e 31 3d 7a 3e 39 8d 15 3e
       -0.2675513 0.15398313 0.24437405 0.14604653
000210 82 60 a1 3d df c8 56 3e c1 28 a5 bd 65 2a 01 bd
       0.078797355 0.20975064 -0.08064414 -0.03153457
000220 eb b7 15 be 66 ff f8 bd e8 1b 76 3e 64 47 a2 3e
       -0.1462094 -0.121580884 0.24034083 0.31695092
000230 57 7a 76 3e fd 7a 80 be 12 f4 0c be 7f 02 3e be
       0.24070106 -0.25093833 -0.1376498 -0.1855564
000240 aa 24 ea 3a fb 82 26 be 44 f4 e7 3d c9 e3 17 3e
       0.001786371 -0.16260903 0.11325887 0.14832987
000250 31 69 b3 3c 94 4b f7 3d c5 e8 15 be 47 02 84 bd
       0.021900745 0.12074962 -0.14639576 -0.06445747
000260 4e e3 66 be 55 4b 4f be 80 58 1c be 2c a2 db bd
       -0.22547647 -0.2024358 -0.15268135 -0.10724291
000270 89 da b7 3e 83 91 93 3e 16 2d ea 3d 0d 1e 88 bd
       0.35908917 0.28821954 0.11434381 -0.06646357
000280 be 40 72 be 7b aa 48 bc 11 51 98 be 0f be a0 be
       -0.2365751 -0.012247677 -0.2974935 -0.31395003
000290 ae 57 c1 be d2 f7 ab 3d 4d ea 53 3e 88 5a 40 3e
       -0.37762207 0.08396877 0.20694847 0.18784535
0002a0 e2 99 48 3e 7e 2d a9 3e 24 27 71 3e 52 ba 96 be
       0.19589952 0.3304252 0.23550087 -0.29439026
0002b0 fa dc dd be f0 05 f6 bc 66 cc 18 3d ba b5 ab 3d
       -0.43332654 -0.030032128 0.037304305 0.08384271
0002c0 4b b4 58 3d 41 70 54 3e 71 fc b9 3d 70 1a e0 bd
       0.052906316 0.20745946 0.090813525 -0.109425426
0002d0 f8 18 00 3d 74 c3 6c be dc 6b 1b be 84 1d 3b be
       0.031273812 -0.23121434 -0.15177864 -0.18272978
0002e0 8d 2d 3a 3d 1c b2 23 3e 3f f7 37 3e c9 b8 dc 3d
       0.045453597 0.15985912 0.1796541 0.107774325
0002f0 7b 6f 15 3e 72 9a 3b 3e 04 bb 9f 3c 13 ce 00 be
       0.14593308 0.18320635 0.019498356 -0.12578611
000300 6b 8c 1f bc 11 0c ca 3d bf c9 29 3e 66 1b 88 3e
       -0.009738068 0.09865583 0.16580866 0.26583403
000310 e5 e9 dd 3e 4d 16 6c 3e ba 5e 83 bd 60 94 eb bd
       0.4334251 0.23055382 -0.06414552 -0.1150291
000320 9e 25 da bd f3 b7 14 3d 5e cd 17 3d b1 5e 7d 3d
       -0.10651706 0.03630824 0.037061088 0.061857883
000330 85 67 53 be 28 30 79 be bc 4c 00 3d 95 2d 8d bd
       -0.20644958 -0.24334776 0.03132318 -0.0689346
000340 79 84 dc 3d 11 4d 6a 3e 96 e0 22 bd b9 7b c1 bd
       0.10767455 0.22880961 -0.039764963 -0.09447426
000350 08 64 26 be 12 54 78 bd 11 f2 91 be 4d 3b b6 be
       -0.16249096 -0.06062705 -0.28504995 -0.35592118
000360 46 b7 ad bd 77 3b df 3c 67 93 76 bd 38 b8 08 3d
       -0.08482222 0.027250035 -0.060199168 0.03337881
000370 78 e0 c0 bd 4c 2b a9 3d 63 14 db bd c4 19 b2 bd
       -0.09417814 0.08260211 -0.10697248 -0.08696321
000380 e9 a1 6c be 91 8a bd bd 0a 16 54 bd 32 dc 4a bc
       -0.23108639 -0.09254945 -0.05177883 -0.0123816
000390 a9 8f bf bc 67 0d 76 be b5 83 60 3e f2 ac b1 bd
       -0.023383932 -0.2402855 0.21925242 -0.08675565
0003a0 02 84 a5 3c 40 c5 e4 bd 61 b0 9b 3d 71 81 26 be
       0.020204548 -0.11170435 0.07602001 -0.16260315
0003b0 78 2b 41 3d 46 0e 3c bd 60 ce 5f bd ca d2 e0 3d
       0.047160596 -0.04591205 -0.054640174 0.10977705
0003c0 44 7f 33 bd 5c 57 b2 3c cf 17 20 bd d4 39 3b be
       -0.04382254 0.021770172 -0.039085206 -0.18283778
0003d0 f4 82 4f 3d 18 f7 59 be 70 89 ec 3d c8 60 f7 3d
       0.050661996 -0.21285665 0.115496516 0.120790064
0003e0 56 b8 10 3e 6f ef 26 3e 22 0b e1 3d b0 51 22 3e
       0.14132819 0.16302274 0.109884515 0.15851474
0003f0 c1 65 b0 3d db 13 87 3d 21 3a 31 bd 98 d7 d9 3d
       0.08613158 0.06595584 -0.043268327 0.10636824

conv1.bias f4 [32]
000000 da 99 54 be b0 2b 93 be 28 60 db bd aa 98 2b be
       -0.20761815 -0.28744268 -0.107117 -0.16757455
000010 9d 75 99 be 13 9d 6c bd 0b e9 16 bd 15 c4 0b bf
       -0.29972544 -0.057766985 -0.03684334 -0.5459607
000020 c0 31 9d be 76 13 23 be 1e d4 cd bd 8d e1 12 be
       -0.3070202 -0.15925393 -0.10050224 -0.14343853
000030 05 67 6f bd a1 21 c5 bd 8f 79 5d 3e bf 1a 69 bd
       -0.058447856 -0.09625555 0.21628402 -0.056910273
000040 92 98 92 bd 28 78 8b be b4 5f cf be 94 6c 06 bd
       -0.07158007 -0.2724011 -0.40502703 -0.032818392
000050 90 2c 07 bd 7b 16 53 be 65 1a 53 be 36 1a ea bd
       -0.033001482 -0.20614044 -0.20615537 -0.114307806
000060 87 25 f1 be 73 5b 01 be f8 31 68 be 2f f9 08 3d
       -0.47098944 -0.12632541 -0.22675312 0.033440765
000070 04 86 b6 be 8c 44 9b bd 10 a1 04 be a0 42 b4 3c
       -0.3564912 -0.07581434 -0.12952065 0.022004426

conv2.weight f4 [32, 32, 3, 3]
000000 63 36 5a bd 89 db b9 bc 1c e3 36 bd 5e 07 3f 3d
       -0.053274523 -0.02268769 -0.044650182 0.046637885
000010 e5 b7 19 bd 14 da 30 bc 77 82 cb bb 50 fe e9 3b
       -0.03752889 -0.010794181 -0.006210621 0.007140912
000020 7b 50 62 bd 6f 86 65 bc d3 44 de 3b 6b 4d 86 3c
       -0.055252533 -0.014009102 0.006783107 0.016394338
000030 88 f3 a3 3c b1 53 e9 bc 6a 32 ad ba 89 a7 1e bd
       0.020013586 -0.02848229 -0.0013213877 -0.038733993
000040 6f a7 42 3d 62 77 1b bd fd 23 02 bd bf 2f d4 ba
       0.04752296 -0.03795565 -0.031772602 -0.0016188546
000050 4c 1f a4 3b 77 7f 98 bc 66 1a 3f bd 02 09 be bc
       0.0050086137 -0.018615467 -0.046656035 -0.023197655
000060 38 a1 a4 3b 60 42 d3 3c 99 e6 1c bd 6c 1a 70 bc
       0.0050241016 0.025788486 -0.038305853 -0.014654737
000070 d1 8a 96 bd 67 ef 7a 3d a0 dd 88 bd 73 6d 44 bc
       -0.07350696 0.061263468 -0.066828966 -0.011988985
000080 b1 99 17 3c 98 27 a2 bd f4 67 75 bd 1c 64 4c bd
       0.0092529515 -0.07917708 -0.05991359 -0.04990016
000090 4b d5 6c 3d e0 68 73 bc b2 24 db 3b a5 3d 57 bd
       0.0578206 -0.014856547 0.006687724 -0.052549023
0000a0 10 34 fb 39 dd e3 2f 3d 68 9a 43 bc 30 21 31 3c
       0.0004791324 0.042941917 -0.011938669 0.010811135
0000b0 23 78 67 3b 6f 76 50 bc dd 2e 78 3d ba 3b 92 3d
       0.003531941 -0.012723549 0.060591567 0.07140298
0000c0 9d 2c af bb d9 f8 f3 bc 87 a1 3e bd 32 30 05 bd
       -0.0053458945 -0.029781746 -0.046540763 -0.032516666
0000d0 1a f5 21 3c 36 ea e5 3b 32 49 3f bd 49 96 85 bc
       0.009885097 0.0070164455 -0.046700664 -0.016307013
0000e0 04 a6 64 3d 40 48 b7 3c 0c 24 c7 3c 7b 89 78 3d
       0.055822387 0.022373319 0.02430918 0.060677987
0000f0 c4 d5 db 3a 3e 20 6d 3d f0 59 03 bd e7 9c 8d bc
       0.0016772081 0.057892077 -0.032068193 -0.01728673
000100 1a d7 60 bd fe 2d a5 bc 43 8a d0 bc bc 70 28 3d
       -0.054892637 -0.020163532 -0.025456553 0.041123137
000110 d7 f1 79 bd 2d de 10 3d 1e 0d da 3b e4 2d 13 bd
       -0.061021652 0.035368133 0.0066543957 -0.035932437
000120 af d6 73 3c 46 6a d2 3c 63 7b 71 bd 58 e8 58 bd
       0.0148827275 0.02568544 -0.05895556 -0.052955955
000130 86 51 de 3c 18 96 4a 3c 87 3c 1c 3d ae df 88 bb
       0.027138483 0.012364887 0.03814366 -0.0041770553
000140 76 87 5b 38 cb 54 8b 3b 6a bf 37 3d e0 99 5d bd
       5.2339827e-05 0.0042520515 0.04486028 -0.054101825
000150 a9 18 6e bd 0e 56 28 3d 52 9b 30 3d c0 de 3a bd
       -0.058128987 0.041097693 0.043116875 -0.045622587
000160 29 3f 8e bc 66 f8 15 bc 1f 71 5f 3d fc af 3f 3d
       -0.017364101 -0.009153461 0.05455124 0.04679869
000170 a8 db 9f bc 27 76 ad 3c 93 83 0f 3d 89 9b 96 bd
       -0.01951392 0.021174503 0.03503759 -0.07353885
000180 b6 11 b4 bb 84 f2 3e bd 00 1e b4 bc dc 82 d9 bc
       -0.0054952754 -0.046618 -0.021986961 -0.026551656
000190 71 65 2f bd 71 ce f7 bc 4b 8c 54 3d 2d fc f3 3c
       -0.04282135 -0.030249806 0.051891606 0.029783333
0001a0 2a 6d 04 bd 6a 99 62 bd 43 a8 31 3d 72 80 34 3d
       -0.03233067 -0.05532209 0.043373358 0.044067807
0001b0 2d f9 43 3d 10 7b f9 bc 32 03 9e 3b 1a e7 ac bc
       0.047845054 -0.030454189 0.0048221583 -0.021106292
0001c0 6a 1c 71 bd 75 31 18 3d 76 3c af 3c 81 1a 69 bd
       -0.05886499 0.03715654 0.021391135 -0.05691004
0001d0 c6 f7 dd 3a f9 89 df 3c 0c 7a e3 bc e6 66 1c bd
       0.0016934804 0.02728747 -0.027768157 -0.03818407
0001e0 0e de a2 bc 96 23 73 bd ac 25 33 bc 98 d7 05 bd
       -0.019881275 -0.05936011 -0.010934275 -0.03267631
0001f0 11 8a 60 bd da 95 60 bc cb 76 6a bd 00 26 33 bc
       -0.05481917 -0.013707602 -0.057242196 -0.010934353
000200 af e9 0b 3d bd 73 c3 bb 5a c8 ac bc df 40 70 bd
       0.034158405 -0.005964725 -0.021091629 -0.058655616
000210 3e f6 bf 3c 7d 13 a1 bd a1 52 59 bd 31 eb a3 bc
       0.023432847 -0.07865045 -0.053057317 -0.020009609
000220 83 d4 34 3a 24 e0 85 3d c0 22 fd 3c 4c 22 78 3d
       0.0006898122 0.06536892 0.03090036 0.060579583
000230 34 19 78 3d c0 22 41 3d 09 db 6d 3d 01 8b db 3c
       0.06057091 0.04715228 0.058070216 0.02679968
000240 4d 36 3d 3d 2f 0c 0a bc 0b b6 90 3c cf 92 b6 bb
       0.046194363 -0.008425756 0.01766493 -0.0055717
000250 1d 45 7e bd 63 69 2c 3d b9 82 51 3d af 78 77 bd
       -0.06207763 0.042092692 0.051150057 -0.060417827
000260 cb f2 f8 ba 68 66 10 bd 3e fe 6d bb 0f c8 fb ba
       -0.0018993256 -0.035253912 -0.003631487 -0.0019209402
000270 5b d7 16 3d fd dc a3 bc 04 37 0d 3d 1c 6a 53 bd
       0.036826473 -0.020002836 0.034476295 -0.051614866
000280 b3 d2 a4 3b ea e4 0e 3c 69 d4 24 3d ed 31 50 3a
       0.00503 0.00872157 0.040241633 0.000794201
000290 b6 ee b6 3c 47 c8 dc 3c d4 fd a4 bc b8 e9 d7 bc
       0.022330623 0.026950968 -0.020140566 -0.026356563
0002a0 04 b2 1b 3d 25 26 84 3c 00 ef 29 bc 9b 90 33 bd
       0.038011566 0.01613147 -0.010371923 -0.04383908
0002b0 fe 11 af 3c f9 ab 25 3d e4 56 84 3d 92 d7 22 bd
       0.021370884 0.04044721 0.064618856 -0.039756365
0002c0 b4 bc f1 ba 9f e8 c6 3c 55 63 4a bd 73 d9 55 3c
       -0.0018443079 0.024280844 -0.049411137 0.013052332
0002d0 4f 67 0d bd 64 59 bc bc a4 a1 47 bd 53 6e 5b 3b
       -0.03452235 -0.022991844 -0.048738137 0.0033482506
0002e0 27 51 b6 bc 66 a3 3a bc ad 89 b1 ba e1 dc f8 bc
       -0.022255493 -0.011391496 -0.0013545059 -0.03037876
0002f0 2d b0 c0 bc 54 c2 94 bc 41 cc 3e 3d 5d 8b 9f bc
       -0.023521507 -0.01815907 0.04658151 -0.019475633
000300 e6 4e 45 bc 12 2d 07 3d b1 33 58 3d 40 69 e2 3c
       -0.012042737 0.033001967 0.05278367 0.027638078
000310 63 f7 04 3c cb 23 88 3c 3e 09 ad bc ba 84 93 bc
       0.008115622 0.01661863 -0.021122571 -0.018007625
000320 37 49 60 3d 71 7a 38 bb 71 c0 fd 39 b7 d5 7d 3d
       0.054757323 -0.0028149153 0.000483993 0.061971392
000330 89 81 dc 3c 38 20 b0 bc e2 c0 d5 bc a5 3d d3 3d
       0.026917236 -0.021499738 -0.02609295 0.10314492
000340 ea 3f c2 bb 33 29 05 bd 80 1a 0d 3d 51 12 20 bd
       -0.0059280293 -0.032509994 0.0344491 -0.039079968
000350 cc 9d 0e bd 85 f8 98 3c 64 6c 26 bd 78 84 b6 bd
       -0.034818456 0.01867319 -0.040630713 -0.08911985
000360 e0 a5 7a 3c 6a c7 7c 3d 5b 09 37 bc 77 88 54 3d
       0.015298337 0.061713614 -0.011171664 0.051887956
000370 ea a9 54 3d 57 8f c6 bc 10 43 93 bb 4b a4 28 bd
       0.051919855 -0.024238272 -0.0044940785 -0.041172307
000380 1f eb 25 bd 2b 77 c6 bc 43 64 b0 3b 1f f5 5f 3d
       -0.040507432 -0.024226746 0.005383046 0.054677125
000390 72 a3 18 3d 25 ce b6 bc bb a0 27 bd 49 9d c8 bb
       0.03726525 -0.022315094 -0.04092477 -0.0061222655
0003a0 ae 94 9c bd eb c0 85 bd 4d 43 6d bc 4a aa 0b 3c
       -0.07645546 -0.06530937 -0.014481378 0.008524487
0003b0 d4 48 ea ba e2 07 e7 bc fa 9c 06 bd 4f c4 59 bd
       -0.0017874488 -0.028202001 -0.03286455 -0.05316573
0003c0 dd 51 32 3d 1b 83 7a 3c fb 4b e9 bc 9b d2 1c bd
       0.043535102 0.015290047 -0.028478613 -0.038286787
0003d0 6c 43 5f bd 94 b1 2b 3d 0a 8b 31 bd 8e bc e3 3c
       -0.054507658 0.0419174 -0.04334549 0.02779987
0003e0 7f 0d 6b bb 2d 82 87 3b 59 8a 8f 3c 41 f0 39 bc
       -0.0035866199 0.004135391 0.017522024 -0.011348785
0003f0 a5 eb 33 bd 91 5f 3e 3c 3d 05 22 bc 9c 43 0c bd
       -0.0439259 0.0116194645 -0.009888944 -0.034244165

conv2.bias f4 [32]
000000 46 15 f5 3b 22 b3 97 be bd ca 08 3f 38 c1 6d 3d
       0.0074793426 -0.29628855 0.53434354 0.058045596
000010 53 f1 8e bd ab fa 3a bd d6 09 8c be 94 33 ca 3e
       -0.06979623 -0.04564921 -0.27351254 0.39492476
000020 a4 37 d2 3c 75 b9 33 be 58 dc 70 bd 95 17 60 bd
       0.025661297 -0.17551215 -0.058803886 -0.05470999
000030 aa 54 bd bd 1d 99 15 be 1a 40 61 3e 5b 86 8a 3e
       -0.09244664 -0.1460919 0.21997109 0.2705563
000040 61 ad 96 3e 55 f3 ed bd b6 47 7c 3d 69 eb 13 3e
       0.29429153 -0.116186775 0.061591826 0.1444527
000050 eb 43 f7 3e 9a 90 d7 3c cd 0c 5f be 92 37 ab bd
       0.48294005 0.026314069 -0.21782227 -0.083602086
000060 c6 18 88 3e d4 6e 68 be 78 9e 11 be ab a6 9e bc
       0.265814 -0.22698528 -0.14220607 -0.019366583
000070 de 80 b9 3d 84 87 c9 39 dd b2 6a be 02 66 75 3d
       0.090577826 0.00038438675 -0.22919793 0.059911735

fc1.weight f4 [120, 1152]
000000 b7 9b 68 3c e0 0b 10 bc 3e 3b ab 3b 71 6e ff 3a
       0.014197282 -0.008791894 0.005225568 0.001948787
000010 2e 9e 6f bc cb 91 6c 3c 42 eb 28 bc 58 a8 aa 3c
       -0.014625115 0.014439057 -0.010309996 0.020832226
000020 8d 70 d0 3c 04 13 8a bc 5c a8 9c 39 48 4f 00 3b
       0.025444293 -0.01685477 0.00029880076 0.0019578505
000030 25 ed 4a 3c 03 a6 6b 3c 4d a3 d5 3a 5d 65 ba 3b
       0.012385641 0.014382842 0.0016299278 0.005688353
000040 c9 2a c4 3c f6 f7 58 bc 23 43 94 b9 0f cb db bc
       0.023946183 -0.013242712 -0.0002827878 -0.026830224
000050 99 32 60 bc 49 b2 0b bb 8f d1 55 3c 35 97 90 3c
       -0.013683938 -0.0021315983 0.013050451 0.017650226
000060 ff 58 65 39 08 02 ab bc 7c b3 69 bc a3 11 20 3c
       0.00021872295 -0.020874992 -0.014263984 0.00976983
000070 60 67 aa 3a 99 08 c1 3c df 97 de bb 28 ea 9f bc
       0.0013000779 0.02356367 -0.006793007 -0.019520834
000080 98 58 67 bc c0 f3 d6 3c cf d8 86 3c a4 35 c4 bc
       -0.0141202435 0.026239276 0.016460804 -0.02395136
000090 ad ca 13 3b 87 0e 81 bc 75 d4 00 3d df fa 0c bc
       0.0022551224 -0.015753997 0.031452615 -0.008604734
0000a0 3c 80 c2 bc 85 f1 0a 3c 32 be 47 3c 4c 8d bb bc
       -0.023742788 0.008480434 0.012191342 -0.022894524
0000b0 cf 68 d1 bc f0 a3 1c 3b ab cf 00 3d 37 6f 1a bc
       -0.025562672 0.0023901425 0.031448048 -0.00942593
0000c0 d9 51 18 3d 83 46 01 3c 38 af db bc 6f bc 30 bc
       0.03718743 0.007890346 -0.02681695 -0.010787114
0000d0 4b 60 f9 39 8f 6e c2 bc 21 33 2e bc 1a 86 88 3c
       0.00047564725 -0.02373436 -0.010632307 0.016665507
0000e0 ec ac 7f 3a bc bb 4f 3c 61 44 ec bc 24 ea 58 bc
       0.00097532454 0.012679037 -0.0288412 -0.013239417
0000f0 e5 e5 e9 3c 84 e1 13 ba c5 98 09 3d 3a 56 4a 3c
       0.028552005 -0.00056412094 0.033592958 0.01234966
000100 ff ca 21 3d c4 61 8b 3b 80 ad e6 bb f3 03 33 3d
       0.039500233 0.004253598 -0.007039726 0.04370494
000110 86 4b 4e 3d cd d9 cb 3b 93 d6 47 3d 91 b2 73 3c
       0.050364994 0.0062210322 0.04878862 0.0148741165
000120 e7 a0 d4 bc 9b 8f c8 3b cb 62 c8 bc cc e5 96 3c
       -0.02595563 0.0061206347 -0.02446117 0.018420123
000130 a8 72 87 3b 7f 45 bc 3b cc 17 d4 3c db 6f 03 3d
       0.004133541 0.0057455893 0.025890253 0.032089096
000140 4d 2b a2 bb 8c 74 01 3c f3 a5 6a bc fb 7e 3e bb
       -0.0049490095 0.007901322 -0.014321792 -0.0029067385
000150 53 17 6d bc 3f db 43 3d 49 d9 2c 3d 39 b2 17 3d
       -0.014470893 0.04781651 0.042199407 0.0370352
000160 77 78 0b 3d 75 96 db 3c 63 52 0a bc eb e8 d3 3c
       0.03405043 0.026805142 -0.008442494 0.0258679
000170 35 dd 13 bc 18 17 29 3d 35 d7 ba 3c 00 cf ef 3c
       -0.009024908 0.04128179 0.022807697 0.02927351
000180 41 86 31 3c 48 50 27 3c 90 94 d8 bb ee d0 6b bb
       0.010835231 0.010212012 -0.006609507 -0.0035982686
000190 bc 51 0e 3d 00 d9 42 bc 1a 4a 72 3c 23 04 de ba
       0.034745917 -0.011892557 0.014788175 -0.0016938489
0001a0 50 c7 d5 3c 1b 20 c6 bc a9 25 aa bc ce 67 b1 3b
       0.026096016 -0.024185231 -0.02076991 0.005413986
0001b0 88 85 d9 bc 5f 2c 7e bb 26 91 f3 bc 95 73 28 3b
       -0.02655293 -0.0038783771 -0.029732298 0.0025703658
0001c0 de 01 00 3d 6f e1 cf 3c 54 1b a6 3c 53 5e 8e 3c
       0.03125178 0.02537605 0.020276703 0.017378962
0001d0 ce 48 b9 bc c8 27 87 3c 0d c5 ea bc 73 7c 02 3d
       -0.022617724 0.016498461 -0.028658414 0.031856965
0001e0 90 29 4d 3c 49 a6 da bb a6 e0 ce bc ae 5e 03 3c
       0.012522116 -0.0066726548 -0.025253605 0.008018179
0001f0 82 a7 0b b7 77 31 2c bc 3f 02 4b 3c eb 88 b2 ba
       -8.324047e-06 -0.01050984 0.012390672 -0.0013621127
000200 9f 9d b3 3c c0 2f 39 bc 83 15 2f bc 8b be 38 3d
       0.021925746 -0.011302888 -0.010686281 0.04510359
000210 8a 19 db bc 8e bd c6 bc 83 7c 1d 3c ee 53 70 bc
       -0.026745576 -0.024260309 0.009612205 -0.014668448
000220 dd 99 e1 bc 60 9a be bc ba c2 c2 3c 45 28 59 bc
       -0.027539188 -0.023266971 0.023774493 -0.01325423
000230 2f 99 83 bc 15 a1 a2 3b 9b 96 85 bc 30 d2 07 3d
       -0.016064255 0.00496305 -0.016307166 0.033159435
000240 9d 7a e0 b9 96 fd 66 bc 7c fb 9a bc 4f 9f 49 bc
       -0.00042815963 -0.014098546 -0.018918745 -0.012306049
000250 d1 1c 9d bc 6b 49 85 bc 86 21 fd 3a 65 23 30 bc
       -0.01917878 -0.01627036 0.0019312359 -0.010750626
000260 35 69 f5 bb 3e e2 f3 ba bb 3b ad 3a 11 e9 29 bd
       -0.0074893483 -0.0018606854 0.0013216654 -0.041482035
000270 31 d4 96 bc 8c 21 09 bc fd d8 50 bd 08 45 10 bd
       -0.018411728 -0.008369815 -0.050988186 -0.035222083
000280 0c 99 82 bd 8b 69 30 bd e1 ba f8 bc b5 cf 6d bc
       -0.063768476 -0.043069404 -0.030362548 -0.014514853
000290 46 a7 03 3d 59 93 14 3c 2d cc 31 bd f2 e8 04 bd
       0.032141946 0.009068334 -0.043407608 -0.032448716
0002a0 23 b1 ad bc f7 b7 37 bc c5 b4 37 3d 78 c0 66 3c
       -0.02120263 -0.011213294 0.04485013 0.014083974
0002b0 cb b4 b6 3c 77 c8 8c bc a3 1c 0e bd f7 19 ab 3c
       0.022303006 -0.017185433 -0.03469528 0.020886404
0002c0 2f ad 38 3d a7 a0 01 3d 12 00 81 3d 6f 2c f2 bb
       0.045087036 0.03164735 0.062988415 -0.007390551
0002d0 61 70 00 bd fe ba 88 3c 73 19 de bc 81 63 78 3b
       -0.031357173 0.016690727 -0.027111745 0.0037901106
0002e0 5d ec b1 bc c8 c4 0a bc 02 63 91 ba 25 a0 48 bc
       -0.021719152 -0.008469768 -0.0011092129 -0.012245213
0002f0 e9 bc 83 3c 3e 60 d2 3b 5d 72 d7 3c 39 84 26 3d
       0.01608129 0.0064201644 0.02629965 0.04065344
000300 11 9d bb 3c 1e 6d a9 3c 3c 1d e9 3b 8a 75 cc 3b
       0.022902044 0.020681914 0.0071140807 0.0062395977
000310 6b 45 15 3d 44 e1 43 3d ad dd e9 3b b9 ed 75 bc
       0.036443155 0.047822252 0.0071370215 -0.015010291
000320 bb 48 e6 3c 60 81 99 3c d5 1d e3 bc 8a f5 62 bc
       0.028110852 0.018738449 -0.027724186 -0.013852486
000330 06 8d 05 bb 43 a7 8d 3c e5 ac a1 bc f9 1a 75 3b
       -0.0020378246 0.01729167 -0.019735763 0.003740011
000340 cd 36 dd bc 6d 83 9c 3c db 97 0c 3c 4f 58 35 bc
       -0.02700367 0.019105637 0.008581127 -0.011068418
000350 f7 78 1d b9 63 29 51 3c 6b f2 0b 3c 27 a6 88 bc
       -0.0001501775 0.012766215 0.008541684 -0.01668079
000360 82 ce 03 3c 4b 46 20 3c 2d 8f 65 bb 0c 4f fe b9
       0.008044841 0.009782384 -0.0035027966 -0.0004850555
000370 af 0c 8f 3c 89 46 77 3c b4 df d2 bc ef 37 13 bc
       0.017462103 0.0150925005 -0.025741436 -0.008985504
000380 d7 3e 6f 3b d2 e1 8f 3c 33 f7 0c 3b 83 1c 91 3c
       0.0036505961 0.017563734 0.0021509647 0.01771379
000390 a7 fc 8a 3c e7 7e aa bc 7e 06 32 bd 67 8c e7 3c
       0.016966177 -0.020812465 -0.043463223 0.028265191
0003a0 3f 98 30 3d b0 20 94 3c 37 69 8b bc ab 89 96 3c
       0.043113943 0.018081993 -0.017017944 0.018376192
0003b0 4f 4d b5 3c 2d 19 0c 3d 01 2d 29 3b 7e 19 23 3c
       0.02213159 0.034203697 0.0025814178 0.009954808
0003c0 61 29 d5 3b ad 1b 71 bb 34 59 26 3d 25 cd 2d 3c
       0.006505177 -0.0036790178 0.040612414 0.010607992
0003d0 84 fb d7 bc f1 e6 a3 3c 2e 6c d6 ba 3e be ca bb
       -0.02636505 0.020007582 -0.0016359144 -0.0061872294
0003e0 ec 53 c8 3a 85 cd cc bb ae 2d d6 bc 6f ba 8d bc
       0.00152838 -0.006250086 -0.026144829 -0.017300813
0003f0 53 12 d0 3c 18 cc 06 3d 98 39 25 3c 9f 89 e4 3c
       0.025399363 0.032909483 0.010084532 0.027897654

fc1.bias f4 [120]
000000 eb 30 91 3b ee 03 ca bc 6a 58 4d 3d 97 00 f1 3c
       0.0044308803 -0.024660077 0.050133146 0.029419227
000010 6c 9c b7 3c 8b f8 81 3d dd fd 82 3c d0 f2 19 3e
       0.022413455 0.06346234 0.015990192 0.15034032
000020 42 48 8e 3d fb 67 97 3d 3c dc 6c bd af 40 0a 3e
       0.06947376 0.073928796 -0.05782722 0.13501237
000030 62 4b 43 3e 96 d2 89 3d 16 d6 1a 3e ad 74 55 bc
       0.19071725 0.06729619 0.1512073 -0.013028306
000040 20 b4 df 3b 2c f8 e8 bd bd f2 9f 3b f2 69 c4 bb
       0.0068268925 -0.1137546 0.0048812316 -0.005994075
000050 ce 1a d2 bc 87 7f 99 bd 89 c7 48 bc 3a 8a c1 bd
       -0.025647547 -0.07495027 -0.012254604 -0.09450193
000060 80 fe 82 bd 4e 7e fd 3d 21 97 af 3d 75 11 21 bd
       -0.06396198 0.12377606 0.085737474 -0.03932329
000070 a4 ac c9 3c ad 33 a7 3d 00 a0 2c ba cb 9d fb 3d
       0.024618454 0.08164153 -0.0006585121 0.12285956
000080 e6 b2 9b bd 86 0b 2d 3d 01 52 1c 3e 11 9d e2 3b
       -0.076024815 0.042247318 0.15265657 0.0069156964
000090 3a 62 e0 3b 9d aa 17 3c 3a 43 0e 3e 60 76 f4 bc
       0.006847647 0.009256986 0.13892832 -0.029841602
0000a0 66 3d 16 bd 79 eb ce bd 69 f8 b8 bd d6 ae 92 3d
       -0.036679648 -0.101035066 -0.090317555 0.071622536
0000b0 38 e9 20 3d 45 90 01 bd fa df d1 bc 77 7d 91 3d
       0.039284915 -0.031631727 -0.025619496 0.07104009
0000c0 50 8f a6 3d aa d1 0c 3c 31 5e 57 be dd f9 2f 3d
       0.081328034 0.00859491 -0.21032025 0.042962898
0000d0 be 06 da bd df 05 2e bd e2 45 31 be ed 7f 18 bd
       -0.10645817 -0.042486068 -0.17311814 -0.037231375
0000e0 c5 ae d3 3c da c2 4d 3d 96 06 1c 3d 3b fe 79 3d
       0.025840173 0.050234653 0.03809222 0.06103347
0000f0 7e 0e 9a bc 08 58 2d 3e 64 e4 fc 3c 03 30 16 3b
       -0.018805739 0.16928113 0.030870624 0.00229168
000100 ac 5a 65 39 cc 10 09 3e c2 11 f9 3c 23 74 67 bc
       0.0002187292 0.13385314 0.030403975 -0.01412681
000110 9a d5 d4 ba cb 8b 35 3d 56 cd 8b 3d 8a 2d 01 3d
       -0.0016237975 0.04432277 0.06826274 0.03153757
000120 90 3b 10 bc bc 49 cf 3d f2 79 cc 3d c1 ed 5e 3c
       -0.008803263 0.101214856 0.09984197 0.01360649
000130 81 2c 4c 3d 99 c0 0d bd 7e 24 99 bc c4 62 8d bc
       0.04984713 -0.034607504 -0.018694159 -0.01725901
000140 47 01 01 3d 2b f5 f8 3d 8e af 59 3c 5b 4b 1f bd
       0.03149536 0.12156137 0.013286484 -0.038890224
000150 46 63 5d 3d 2d d9 a2 3d 35 9d 92 bd 93 b4 8a bb
       0.054049753 0.07951579 -0.07158891 -0.004232952
000160 9b e8 f1 3c 47 fa f6 bd 2e 1e 41 3d be 19 83 bb
       0.02952986 -0.12059455 0.047147922 -0.0040008714
000170 39 c7 9d 3d 49 2a c9 bc 2a 2b 80 3d 08 85 eb bc
       0.07704014 -0.024556296 0.06258233 -0.028749958
000180 e4 d5 47 bd f9 21 50 3d 1d 03 23 bc 3c 44 fe 3c
       -0.048787966 0.05081365 -0.009949473 0.031038396
000190 d4 d3 b7 3d 26 68 c7 3d d9 3c 56 3d 5c 6d 74 bc
       0.0897595 0.097366616 0.052304123 -0.014918651
0001a0 4c 44 e9 3d ae ed f0 bd a0 ba cf 3c 1f 4f f5 3c
       0.1138998 -0.11764084 0.025357544 0.029944954
0001b0 35 18 ca bc c3 89 74 bd 71 25 28 bd df 76 df 3d
       -0.024669746 -0.059701692 -0.041051332 0.10911345
0001c0 91 f9 38 3c 1b 5d 4b 3e 6f d3 e8 3c 28 fd c7 3d
       0.01128997 0.19859736 0.028421132 0.097650826
0001d0 fe b3 f8 bc 72 e2 8c bc de 7d 91 bc 2c 60 3a bb
       -0.030359264 -0.017197821 -0.017760213 -0.002843867

fc2.weight f4 [84, 120]
000000 87 3a 2a bd ee 4e f0 bc 7c d9 80 bd 72 ed 3a be
       -0.041559722 -0.029334512 -0.06291482 -0.1825464
000010 3d f2 96 bc 60 cd bb bd 41 5f fe bd 03 81 92 bd
       -0.018426055 -0.091700315 -0.12420512 -0.07153513
000020 41 bc fe 3d 2c 05 d9 bd 81 76 b3 3d 99 ad 3f 3d
       0.1243825 -0.105966896 0.08762837 0.046796415
000030 5b ec 55 3b 03 b2 98 3d 87 69 dc 3d 5f b1 0f 3d
       0.00326421 0.07455828 0.10762315 0.035081264
000040 3b dd 0a 3e 76 03 0e be 2a 3e f8 3c c1 ed ac 3c
       0.13560955 -0.13868508 0.03030308 0.021109464
000050 e0 76 2e 3c 6f 97 23 3e ac 56 e3 3c c9 51 b7 bd
       0.010648459 0.15975736 0.02775129 -0.08951146
000060 e9 67 af 3d 46 e3 03 bd be 37 40 3d 35 77 5e 3d
       0.08564741 -0.032199167 0.04692816 0.054312903
000070 1c 7b 41 3d d6 42 1f bd 40 fb db 39 27 f6 16 bd
       0.047236547 -0.0388821 0.0004195813 -0.036855843
000080 3e 4b 0f 3e c1 1d 91 3d 11 9c e7 3d 97 52 08 bd
       0.13993546 0.07085753 0.11309064 -0.03328189
000090 e2 9b 50 bc e8 94 db bd 50 74 70 bd 76 2e 8e 3d
       -0.012732478 -0.10721761 -0.058704674 0.069424555
0000a0 0e 21 ed 3d 64 ac 86 3d b3 ff 69 3d 6b d1 f9 bd
       0.1157857 0.0657585 0.05712862 -0.121981464
0000b0 f0 54 da bc 26 8d a4 bb d4 4c 96 bd 14 19 d1 3d
       -0.02665183 -0.005021709 -0.073388726 0.102098614
0000c0 74 3a 0f bc e1 bd 05 be 84 79 2f bd 97 f5 19 bd
       -0.008741964 -0.13060714 -0.042840496 -0.03758773
0000d0 28 5a 4b bb 10 c7 8e 3d a7 18 16 bb 04 a0 8e bd
       -0.003102908 0.06971562 -0.0022902878 -0.06964114
0000e0 30 71 8a bc 60 ed 20 be e2 f8 a9 bd 2d 60 09 3e
       -0.016899675 -0.15715551 -0.08299424 0.13415594
0000f0 23 17 2e 3e b7 c5 19 be d4 e9 a8 bd ff 65 4b 3d
       0.17001013 -0.15016828 -0.08247724 0.049657818
000100 71 68 bd bd 14 74 64 bd 6e f4 89 3d 49 e3 19 3d
       -0.09248436 -0.055774763 0.067360744 0.03757027
000110 48 fa f0 3b 35 94 62 bd 0b cc cf bb 04 15 6d bc
       0.0073540546 -0.055317122 -0.0063414625 -0.014470343
000120 7f 60 6d bd 48 8f 42 3e 26 70 f7 bd c3 01 9b bd
       -0.057953354 0.1899997 -0.120819375 -0.075686954
000130 b5 d2 9d bd 3c 3f 4b bd 93 cb 8b 3c 9c f6 4b 3d
       -0.07706205 -0.049620852 0.017064845 0.049795732
000140 b8 9f f9 3c 85 a0 a5 3d a3 65 b3 3d a1 be b2 bc
       0.030471668 0.08087257 0.0875962 -0.021819415
000150 ae cd 1d 3c 62 30 26 3e 84 fc e3 bc 5a ce 01 be
       0.009631557 0.16229394 -0.02783037 -0.12676373
000160 2b ab 49 bc 9e be 0b be 6e ec 8f bd a6 dd 00 3d
       -0.012308876 -0.13646933 -0.07027517 0.03146138
000170 9f e4 61 3d fe d5 a5 3d ea 7c 7e bd c6 97 cd bc
       0.05514967 0.080974564 -0.062130846 -0.025096785
000180 63 27 da bc a4 d0 a6 bd f4 f6 8f bb 87 88 11 be
       -0.02663011 -0.08145264 -0.004393453 -0.14212237
000190 0e 8c 05 be 23 86 e3 bc 47 e4 6e 3d d6 fa 64 bc
       -0.13041708 -0.027773922 0.05832317 -0.01397582
0001a0 91 3c ac bc fe 1d 17 3e 06 f4 16 be 0a 93 02 bd
       -0.021024974 0.14757535 -0.14741525 -0.03187851
0001b0 06 db 23 be 43 a2 af bd 4f 07 24 3d 0c 46 ee 3c
       -0.1600152 -0.08575871 0.040046033 0.029086135
0001c0 94 5e 50 be 87 e7 0c 3e d2 28 ea 3c 24 c5 ad bd
       -0.20348579 0.13760196 0.028583918 -0.08484867
0001d0 ac 84 bc 3c 65 0f 7e bd b1 b7 a1 3d 58 fb b3 bd
       0.023012482 -0.0620264 0.078963645 -0.087881744
0001e0 1d 92 0c 3c 56 e2 90 3d c7 1a 1e bd c0 5b 8d 3d
       0.008579758 0.0707442 -0.038599756 0.069022655
0001f0 ca ee 51 bd 4e 42 9d 3d 3a c3 ab 3b a0 05 a2 bd
       -0.051253118 0.07678662 0.0052417787 -0.07911229
000200 cc 66 8c 3d 9d 5f e9 3c ac 74 ca 3d 62 2f 5b bd
       0.068555444 0.028487975 0.09885535 -0.053511985
000210 d7 3e 87 bc 71 b9 81 ba 20 0c 81 3b 97 fe aa bd
       -0.016509457 -0.0009897185 0.003938213 -0.083493404
000220 f2 8e 92 3c 56 9d 6f bd 0e eb cf 3d 62 55 22 bd
       0.017890427 -0.058499657 0.10152255 -0.03963221
000230 2b c9 b1 bd 67 9b dc bd 0e 8f 2c bd f2 b6 6f bd
       -0.08680948 -0.10771828 -0.042128615 -0.05852408
000240 c1 12 01 3d f3 10 a3 3d 04 a4 25 bd 75 3f 1b bd
       0.031512026 0.07962217 -0.04043962 -0.037902314
000250 40 9a 7e 3d 99 d9 17 3d e2 e0 ad 3c 0a ff fa bb
       0.062158823 0.03707275 0.021225397 -0.0076597976
000260 f7 9e a4 3d d6 ea b4 bc fc 2a ce 3d 2d 4b 47 3d
       0.08038133 -0.022084635 0.10066792 0.048655678
000270 54 6a 5b bd a6 ae ec 3c ab 36 cf bc 67 2a 23 3d
       -0.0535682 0.028891873 -0.025294622 0.03983536
000280 32 e6 8e 3d 73 7e 97 bd 3a cb af bc 40 29 c0 bd
       0.069775 -0.07397165 -0.02145921 -0.09382868
000290 b2 98 27 bb 91 a1 04 3d 0d 89 71 3c 80 a2 db bd
       -0.0025573191 0.032380644 0.014742148 -0.10724354
0002a0 06 a8 2f 3d 59 b9 ec bb 7c 18 40 bd ed 8d bc 3d
       0.04288485 -0.0072242436 -0.04689835 0.09206758
0002b0 26 d0 41 bd 2c 8b 86 bd e7 f5 4c bd 2f e5 0e 3d
       -0.047317646 -0.06569514 -0.0500392 0.034886535
0002c0 d0 b5 c9 bd 2c b3 f2 3c a0 80 53 bd 2d 26 f1 3d
       -0.09849131 0.029626451 -0.05163634 0.117748596
0002d0 95 be 38 bd c6 c4 1f 3e 8b b8 51 bd 48 ac c1 bd
       -0.04510363 0.15602407 -0.051201385 -0.09456688
0002e0 4c 16 1e bd d0 55 23 bc e5 65 8f 3d 1d 2d 27 3d
       -0.038595483 -0.00996919 0.07001857 0.040814508
0002f0 3b 4d 89 3d 20 e5 31 3d 6c 3a e6 3b dd c0 8e bd
       0.06704184 0.0434314 0.0070260074 -0.069703795
000300 89 dc 59 bd ba f5 99 bd 79 6a c7 3d 0c 7d b2 3c
       -0.053188834 -0.07517572 0.09737105 0.021788143
000310 bf e7 82 bd 4e 34 4e bd 7a 73 64 3d 6b 59 a6 3d
       -0.06391858 -0.05034285 0.05577419 0.08122524
000320 22 59 ad 3c cc 6a 46 bd 34 72 b7 3d 86 aa 89 3d
       0.021160666 -0.048441693 0.089573294 0.06721978
000330 66 38 1d bc dd ab 8f bd 0d df a8 3d 9c 05 7d bd
       -0.009595966 -0.07015202 0.082456686 -0.061772928
000340 a3 78 aa 3d 53 9b b2 bd 74 82 39 bd 1e 7f db bc
       0.08323791 -0.08721032 -0.045290425 -0.026794013
000350 fa 43 4e bc d0 46 9d 3c 86 f3 1a bd 72 f6 15 bb
       -0.012589449 0.019198805 -0.0378299 -0.0022882489
000360 93 95 0b 3b 9a 50 b4 bd 41 0a 61 bd cd 07 8e 3c
       0.002129887 -0.08804436 -0.05494142 0.017337704
000370 35 92 59 bd 55 36 6e 3c 01 08 ec bc 5c 52 72 bc
       -0.05311795 0.014539321 -0.02881241 -0.014790144
000380 1c 48 24 bd 4e 17 af 3d 10 3f 1f bd 0a 26 9f bd
       -0.04010783 0.08549367 -0.0388785 -0.07770927
000390 1f 26 a2 3d 43 64 60 3d c0 dc 80 bd 81 c1 fe 3c
       0.07917427 0.054783117 -0.06292105 0.03109813
0003a0 8b 8e 33 3d ed 7d d6 3d 56 ab d9 bc f7 3b 5f 3d
       0.04383711 0.10473237 -0.026570957 0.054500546
0003b0 2c ee 7d 3d 82 f3 42 bd 4f 89 52 3b 53 b6 a9 3d
       0.061994717 -0.04759551 0.00321253 0.08286729
0003c0 12 d9 fb 3c bc 3f ef 3d a6 a1 b1 bd 93 07 04 3c
       0.030743156 0.11682078 -0.0867341 0.008058446
0003d0 23 ff b3 bc 5e 47 b3 3a 5a af be 3d 8c f3 57 bd
       -0.021972245 0.0013677885 0.093107894 -0.0527225
0003e0 69 e6 2a bd 3a 52 9f 3d 35 35 66 3d 62 8f 8a 3d
       -0.041723642 0.07779355 0.056203086 0.06765629
0003f0 a4 84 a4 bd d2 47 f5 3d ea 0e 36 3d db e0 ba bd
       -0.08033112 0.11976589 0.044447817 -0.09124919

fc2.bias f4 [84]
000000 78 d7 96 3b 6c d6 5e 3e ca 4a df 3d bb fb d7 bc
       0.0046033226 0.21761483 0.10902937 -0.026365152
000010 39 fc d5 3d 22 01 05 bb fa f6 4c 3d 0e 05 74 3d
       0.10448498 -0.0020294865 0.050040223 0.059575133
000020 bc 61 92 3d 33 8d 05 3d 8f d2 bc bd 3d 4d 3d bb
       0.071475476 0.03260536 -0.09219848 -0.002888515
000030 23 c7 90 bd da 0a a3 3c 79 49 d0 3c 13 a7 aa 3e
       -0.07069232 0.019902635 0.02542566 0.33330593
000040 1c c6 c2 3c 62 c8 84 3e ca 18 27 bd 93 1c 78 3e
       0.023776107 0.2593413 -0.040795125 0.2422965
000050 4c 03 c8 3c 83 ad 1a 3e 27 dc a9 bb 94 3c 6b bd
       0.024415635 0.15105252 -0.005183715 -0.05743082
000060 c5 43 29 3d a8 ec ba 3b b8 ef 49 3d 46 06 13 be
       0.041324396 0.005704481 0.04930088 -0.14357862
000070 9c e8 6f 3e 68 9f 53 3d b2 89 7e 3e 57 fe 13 be
       0.23428577 0.051665694 0.24857214 -0.14452492
000080 09 c0 1d 3d 9f 8e 33 3e 26 bb dd 3d bb 2f ef 3d
       0.038513217 0.17534874 0.10826711 0.11679026
000090 29 c9 ee 3d 74 07 b6 bb 0c a3 68 bd e2 92 1d bd
       0.11659462 -0.0055550877 -0.05679612 -0.038470156
0000a0 b1 f7 01 be 83 99 7f 3e ff c3 53 3e 88 e7 47 bd
       -0.12692143 0.24960904 0.20680235 -0.04880479
0000b0 69 7e 56 3e ba bd a6 b9 89 23 76 3d 7a c5 01 3e
       0.20946659 -0.00031803345 0.060092483 0.12672988
0000c0 fe 2c 04 3c 35 33 db bd 85 28 15 3e 76 c2 d3 bd
       0.008067368 -0.10703126 0.14566238 -0.10339825
0000d0 3c a8 4a 3e 94 49 d5 bc a7 a8 87 3c 0a 10 52 bd
       0.19790739 -0.026036061 0.016559912 -0.051284827
0000e0 72 31 13 3e 58 1e 54 bc 94 a1 0b bd 36 d5 47 3e
       0.1437433 -0.012946688 -0.03408964 0.19514927
0000f0 fb ff 2b bd 18 68 77 bc 18 cc 85 bd 0e bc 28 3e
       -0.04199217 -0.0151005015 -0.065330684 0.16477987
000100 d2 b4 fa bc 07 9c 9c 3d 40 e5 d6 3d b7 15 24 bd
       -0.0306038 0.07646947 0.10492945 -0.04005977
000110 79 a6 97 3e da 1d aa bc 1d 9f 2a be a4 cc 9b bd
       0.29619196 -0.020766187 -0.1666226 -0.076073915
000120 02 bb a4 3c 00 d3 3a bd cd 67 ab 3d eb 9a 26 3e
       0.020108704 -0.04561138 0.08369408 0.16270034
000130 af 18 9a 3d 1e 24 c9 3d 24 86 97 3d b9 d9 24 3d
       0.07524239 0.09821342 0.07398632 0.0402467
000140 fe 07 65 3d 50 9a 6d bd 4f 1e 0b 3e 92 39 84 3d
       0.055915825 -0.058008492 0.1358578 0.06456293

fc3.weight f4 [10, 84]
000000 bf b7 8f be 47 f0 03 be e7 af 9f 3d 8b 19 03 bd
       -0.28069875 -0.12884627 0.077972226 -0.03200678
000010 72 49 a3 3d 6c 64 ec 3c 91 ac 91 3d 1e 29 a7 bd
       0.07972993 0.028856479 0.071129926 -0.08162139
000020 75 b5 44 3e 15 c7 61 bd 9f f1 19 be 0a b1 b8 bd
       0.19209845 -0.0551215 -0.15033577 -0.090181425
000030 c8 f0 5c 3d 1a c9 35 3d 3c 20 30 be 1b 4d 61 3e
       0.053940564 0.04438124 -0.17199796 0.2200207
000040 d3 ba 2f 3d 87 5e 79 be 11 9c 54 bd 02 b0 85 3c
       0.04290278 -0.24352466 -0.05190665 0.016319279
000050 12 5b cd bd 4a 50 0b be 43 89 72 bd fd 43 45 3d
       -0.10027136 -0.13604847 -0.059212934 0.04816054
000060 54 a8 87 bd 77 a4 53 3d 8c 74 cc ba 11 8e e4 3c
       -0.06623903 0.051670518 -0.0015598699 0.027899774
000070 36 b8 55 3e 5f f0 1f be 91 85 30 be ca 20 ed bc
       0.20871052 -0.15619038 -0.17238452 -0.0289463
000080 07 49 1f be ed 5e 65 be 02 85 5a 3d 86 3c 4d be
       -0.15555201 -0.22399493 0.053349502 -0.20042619
000090 12 cf 79 39 ad 72 1f 3e 7e 56 4b bd 58 5f f3 3d
       0.0002382363 0.15571089 -0.049643032 0.1188342
0000a0 6b c3 ec 3b 05 d8 27 3e 6d c2 66 be 4d 23 06 bd
       0.007225444 0.16390999 -0.22535105 -0.03274851
0000b0 17 3d 8f be a4 71 92 bd 33 99 b1 3d 7d 46 36 3e
       -0.27976295 -0.071505815 0.086717986 0.17800327
0000c0 69 4f 75 bd ba 2c e0 bc 57 c5 54 3e 40 ff 38 bd
       -0.059890185 -0.027365077 0.20778404 -0.0451653
0000d0 ba ac 01 be bf b4 09 3e 5a ef 19 be 51 6a 2e 3d
       -0.12663546 0.13447855 -0.15032712 0.04258186
0000e0 47 7b 99 3e 16 5b 0c bd fe 28 8b 3d bc 70 80 bc
       0.29976866 -0.034266554 0.06794928 -0.015678756
0000f0 03 1a ae 3e 0c 61 43 3d 60 eb 3a be ee e2 b0 3e
       0.3400422 0.047699973 -0.18253851 0.34548134
000100 c5 5c f4 bd e8 61 ce 3e 3c df 6b 3e 0d d5 36 3d
       -0.11931757 0.40309072 0.23034376 0.044636775
000110 e8 56 0f be 3a 69 36 3d e1 48 0f 3e 39 af 6a 3e
       -0.13997996 0.044533946 0.13992645 0.22918405
000120 17 62 e9 bd fd 9f a5 3e 4f 47 28 bd ca ea 3b be
       -0.11395662 0.32348624 -0.04108363 -0.18351284
000130 7e 8f a0 bd 40 47 2a 3e 07 bc 21 3d cf ee cb 3d
       -0.07839869 0.16628742 0.039485957 0.099576585
000140 f1 5e 58 be c8 4f 6b 3d 9d 64 84 3e 50 2e 2f 3e
       -0.21129967 0.057449132 0.25858012 0.1710751
000150 6b ef db bd e3 f8 91 bd 7d 17 37 3c 46 8f 9b 3d
       -0.10739025 -0.071275495 0.011175034 0.075956866
000160 04 4e 6a 3d fe 6a b5 bd 1b be e2 bd 4f 15 72 bd
       0.057203308 -0.08858298 -0.11071416 -0.059102353
000170 f8 96 42 be 64 97 43 bd e3 37 b4 3d 35 16 80 3e
       -0.19002903 -0.0477518 0.08799722 0.25016943
000180 37 d6 fc bb 4c 5e b9 bd 64 68 2f 3e 6d 04 62 be
       -0.007715966 -0.09051189 0.17129666 -0.22072001
000190 3e 39 cc 3c 97 ed c7 bd c3 63 f3 b9 c7 53 87 bd
       0.024929639 -0.097621135 -0.000464229 -0.06607776
0001a0 60 27 63 3e c7 ad 04 be 07 e7 1a 3c 0b b0 6f 3d
       0.22182989 -0.12956916 0.009454495 0.058517497
0001b0 da 2d a5 bd 5e 2b 33 bd ad 8f 97 3d 95 f0 10 3d
       -0.08065386 -0.04374253 0.07400451 0.035385687
0001c0 18 3f bd bd 46 21 59 3e ba d6 91 be f9 8c 13 3f
       -0.0924055 0.21204099 -0.28484136 0.5763698
0001d0 46 2b 80 bd 78 30 95 be 71 b2 68 3e 38 9d 2f be
       -0.06258254 -0.2913854 0.2272432 -0.17149818
0001e0 61 bc 66 be dc 41 63 3d fb cf 67 bd f0 1e d9 3d
       -0.22532798 0.05548273 -0.05659483 0.10601604
0001f0 d7 fb cc 3b c6 69 83 be 38 7e 16 3d 1b 69 a8 3c
       0.0062556076 -0.25666636 0.036741465 0.02055793
000200 c6 3e 50 be b0 46 66 be 90 69 96 be 87 f1 50 3e
       -0.20336446 -0.22487903 -0.29377413 0.20404635
000210 a1 b8 c3 bd c8 7a a7 bd 90 d6 cb 3e af 1c f0 3c
       -0.095566995 -0.081777155 0.39812136 0.029310552
000220 c8 95 b6 bd 6a ab 3a bd 4e e2 3c 3a 52 0d 4a 3d
       -0.08915287 -0.04557363 0.0007205353 0.04932911
000230 e7 96 73 3e 2a eb d1 3d 65 d4 8d 3b ec 0f 8f 3b
       0.23788033 0.10249932 0.004328298 0.0043659117
000240 66 ed 8b bd 12 9e 63 bd 25 a7 6f 3d 58 09 02 3e
       -0.068323895 -0.05557067 0.05850901 0.12698877
000250 d3 1a 89 3e 35 80 30 bd 82 ed 0d 3d 91 9f 28 bd
       0.26778278 -0.043091018 0.034650333 -0.0411678
000260 2a cb 65 be 3d 6f 41 bd 8a 9a 19 3e 39 5a 0d 3e
       -0.22440782 -0.047225226 0.15000358 0.13803948
000270 85 86 88 bd 77 34 36 bd fa 9a 51 be 29 12 a3 bd
       -0.066662826 -0.044483628 -0.20469275 -0.07962448
000280 a2 d9 81 bd cb 2b 75 bd d5 ab f8 bc 26 bc f1 bd
       -0.06340338 -0.059856217 -0.030355373 -0.118034646
000290 e9 e1 33 3d 8d c4 33 3d 7e e4 a0 be 22 4c 7a be
       0.043916617 0.043888617 -0.31424326 -0.24443105
0002a0 9c ae 86 bd 91 59 2c 3d 45 12 43 be 6b 40 d7 3d
       -0.06576273 0.042077605 -0.19049938 0.105103336
0002b0 bf f3 1c 3d cb b8 84 3d f3 33 42 be 08 79 28 be
       0.038318392 0.06480559 -0.1896513 -0.1645242
0002c0 28 5a 93 3d 86 b8 83 3e dc 9f 81 3d e5 56 0b 3e
       0.0719493 0.25726718 0.06329319 0.13607366
0002d0 56 06 70 3d 09 6d ab 3d 94 86 44 3d f9 38 48 3e
       0.058599792 0.08370406 0.047979906 0.19552983
0002e0 b6 9e a7 3e a3 a4 96 bd 70 17 97 3d 69 c4 ee bd
       0.32738274 -0.07355621 0.07377517 -0.11658556
0002f0 9a 91 d4 bc bf 83 17 3e b0 65 8b 3d cf c4 94 3e
       -0.025948334 0.14796351 0.06806505 0.29056403
000300 28 18 11 3e bd 20 47 be 51 5a 83 bd fa 91 11 3e
       0.14169371 -0.19446082 -0.06413711 0.14215842
000310 fe 64 59 bd e4 5d 8a bd e5 84 b1 3e 9c 36 f3 bd
       -0.05307483 -0.067561895 0.34671703 -0.1187565
000320 f1 11 eb 3d 31 3d fe 3c 42 ae 50 be 87 72 e7 3d
       0.114780314 0.031035038 -0.20378974 0.11301141
000330 d4 b5 53 3e a0 45 b3 bd 64 33 f4 bc e2 ed 10 bd
       0.2067483 -0.08753514 -0.029809661 -0.035383113
000340 3f 32 45 bc 0a 8f 94 3e 62 11 ee 3c 44 16 aa 3d
       -0.012035905 0.2901538 0.029061023 0.08305028
000350 98 b7 f0 bd 11 68 d0 bd 47 ee b9 bb 8a c6 da 3c
       -0.11753768 -0.10176099 -0.005674157 0.026705999
000360 b7 b7 0c 3e de d3 02 bd 4b ea 19 be 7e ab d9 3c
       0.13741957 -0.031940334 -0.15030782 0.026571032
000370 62 ec 35 be 13 56 18 bb 73 f4 85 3e 37 c3 d7 bc
       -0.17765954 -0.0023244664 0.26163062 -0.026338203
000380 10 55 1d 3a 9a d7 21 be bb c4 78 bd 90 86 58 3d
       0.000600175 -0.15804902 -0.06073449 0.052862704
000390 e3 a5 85 3d 41 3e fe bc 47 11 2b be 97 61 58 bd
       0.06525781 -0.031035544 -0.1670581 -0.052827444
0003a0 89 7d af bd 1f af 77 3d 79 c1 38 3c fc c1 5f bc
       -0.08568866 0.060469743 0.011276596 -0.013657089
0003b0 16 da 13 3e aa 31 bc 3d eb 5a b9 bd 00 13 46 be
       0.14438662 0.0918916 -0.09050544 -0.19343185
0003c0 79 c8 b5 bd 48 5f f2 3d e8 8e 59 3e 18 6f 66 3e
       -0.08876128 0.1183458 0.2124592 0.22503316
0003d0 cf af 33 bd 86 cf 95 bd 03 24 e7 bd 3d 74 dd 3c
       -0.043868836 -0.073149726 -0.112861656 0.027032966
0003e0 68 48 1b be 5d 87 38 bd 4b 68 72 3e 76 ee 11 3e
       -0.1516434 -0.045050967 0.23672597 0.14251122
0003f0 03 3e 59 bd 8c a7 14 3e 87 5a 17 3e 3e 01 9f 3c
       -0.053037655 0.14517039 0.14780627 0.019409772

fc3.bias f4 [10]
000000 6e 29 c5 ba 92 f7 a0 be a6 de d6 3d 15 24 97 3e
       -0.0015042254 -0.3143888 0.104916856 0.29519716
000010 bf a4 de 3e b5 9b 17 be fb 20 65 bd f9 ac c2 be
       0.43485066 -0.14805491 -0.055939656 -0.38022593
000020 23 03 b2 3e 9c 63 b8 be
       0.34768018 -0.36013496
